…
        	 <abs_path_to_output_folder>\DNNLikelihood_toy.log 
        updated (or saved if it did not exist) in 0.001136699999733537 s.

        Model for DNNLikelihood DNNLikelihood_toy defined in 1.8786916000008205 s.

        Model: "functional_1"
        _________________________________________________________________
        Layer (type)                 Output Shape              Param #   
        =================================================================
        input_1 (InputLayer)         [(None, 11)]              0         
        _________________________________________________________________
        dense_28 (Dense)             (None, 1000)              12000     
        _________________________________________________________________
        dense_29 (Dense)             (None, 1000)              1001000   
        _________________________________________________________________
        dense_30 (Dense)             (None, 500)               500500    
        _________________________________________________________________
        activation_8 (Activation)    (None, 500)               0         
        _________________________________________________________________
        dense_31 (Dense)             (None, 100)               50100     
        _________________________________________________________________
        dense_32 (Dense)             (None, 100)               10100     
        _________________________________________________________________
        dense_33 (Dense)             (None, 1000)              101000    
        _________________________________________________________________
        activation_9 (Activation)    (None, 1000)              0         
        _________________________________________________________________
        batch_normalization_8 (Batch (None, 1000)              4000      
        _________________________________________________________________
        dropout_4 (Dropout)          (None, 1000)              0         
        _________________________________________________________________
        batch_normalization_9 (Batch (None, 1000)              4000      
        _________________________________________________________________
        alpha_dropout_8 (AlphaDropou (None, 1000)              0         
        _________________________________________________________________
        alpha_dropout_9 (AlphaDropou (None, 1000)              0         
        _________________________________________________________________
        dense_34 (Dense)             (None, 1000)              1001000   
        _________________________________________________________________
        dense_35 (Dense)             (None, 1)                 1001      
        =================================================================
        Total params: 2,684,701
        Trainable params: 2,680,701
        Non-trainable params: 4,000
        _________________________________________________________________
        ============================== 
        Compiling Keras model

        ============================== 
        DnnLik log file
        	 <abs_path_to_output_folder>\DNNLikelihood_toy.log 
…
