…
        "file path":"C:\\Users\\Admin\\Dropbox\\Work\\09_Resources\\Git\\GitHub\\DNNLikelihood\\DNNLikelihood_dev\\tutorials\\toy\\outfiles\\DNNLikelihood_toy\\DNNLikelihood_toy_summary.json"
    },
    "2020-05-10-10-06-41.8981":{
        "action":"defined tf model",
        "model summary":[
            "Model: 'model'",
            "_________________________________________________________________",
            "Layer (type)                 Output Shape              Param #   ",
            "=================================================================",
            "input_1 (InputLayer)         [(None, 11)]              0         ",
            "_________________________________________________________________",
            "dense (Dense)                (None, 300)               3600      ",
            "_________________________________________________________________",
            "batch_normalization_1 (Batch (None, 300)               1200      ",
            "_________________________________________________________________",
            "dense_1 (Dense)              (None, 300)               90300     ",
            "_________________________________________________________________",
            "batch_normalization_2 (Batch (None, 300)               1200      ",
            "_________________________________________________________________",
            "dense_2 (Dense)              (None, 300)               90300     ",
            "_________________________________________________________________",
            "dense_3 (Dense)              (None, 300)               90300     ",
            "_________________________________________________________________",
            "batch_normalization_3 (Batch (None, 300)               1200      ",
            "_________________________________________________________________",
            "dense_4 (Dense)              (None, 300)               90300     ",
            "_________________________________________________________________",
            "batch_normalization_4 (Batch (None, 300)               1200      ",
            "_________________________________________________________________",
            "dense_5 (Dense)              (None, 1)                 301       ",
            "=================================================================",
            "Total params: 369,901",
            "Trainable params: 367,501",
            "Non-trainable params: 2,400",
            "_________________________________________________________________"
        ]
    },
    "2020-05-10-10-06-41.9630":{
        "action":"compiled tf model"
    },
    "2020-05-10-10-06-41.9650":{
…
